neuralnetworks/convolutional/model_cnn.ckpt (torch, 938201 bytes, 14 tensors)

layer1.0.weight f4 [16, 3, 5, 5]
0	0x3d2d8d67	0.04237118
1	0x3cc0d6b1	0.023539873
2	0xbdb6974e	-0.08915578
3	0x3db3f797	0.087874584
4	0xbd5339cd	-0.051568795
5	0xbdab8c00	-0.08376312
6	0xbd9381c0	-0.07202482
7	0xbddb18bf	-0.10698079
8	0xbd06c3e1	-0.03290165
9	0xbd3a07bf	-0.045417544
10	0xbdbed345	-0.0931764
11	0x3c976223	0.018479412
12	0xbd85ea11	-0.06538785
13	0xbdcef39f	-0.10105061
14	0x3bf6bbca	0.0075297104
15	0x3ca1e836	0.019764047
16	0xbdc34cfd	-0.09536169
17	0x3d05a8e0	0.032631755
18	0xbdd02f7b	-0.10165306
19	0xbd6ecae8	-0.058298975
20	0xbd882752	-0.06648125
21	0x3db6e767	0.08930855
22	0x3db540e4	0.088502675
23	0x3d0d7a9b	0.034540754
24	0x3dde102d	0.10842929
25	0x3d88c433	0.06678047
26	0xbdc5aece	-0.09652482
27	0xbcf626d9	-0.03004782
28	0x3cc606ac	0.024173103
29	0x3ca90568	0.02063246
30	0x3dfaf0e2	0.12252976
31	0x3d44f703	0.04808713
32	0x3d83ebb4	0.06441441
33	0xbc9cb530	-0.019129366
34	0x3d10c50f	0.03534418
35	0xbdc8056b	-0.097666584
36	0x3c6a140f	0.014287009
37	0x3df10671	0.11768807
38	0xbd561380	-0.05226469
39	0xba9a6cda	-0.0011781708
40	0x3deb50f8	0.11490053
41	0xbdd417cc	-0.103561014
42	0x3c4f5b94	0.012656111
43	0xbbfa4d50	-0.007638611
44	0xbd0d1b57	-0.0344499
45	0x3d8ac039	0.06774945
46	0x3c7a8ab0	0.015291855
47	0x3dc19fbc	0.09454295
48	0x3dac70a0	0.08419919
49	0x3d715470	0.058918417
50	0xbcb30a13	-0.02185539
51	0x3da934ca	0.08262022
52	0xbd1e1d81	-0.038602356
53	0xbd8afd64	-0.06786612
54	0x3c5d5286	0.013508445
55	0x3cc99473	0.024606919
56	0xbddb5cda	-0.107110694
57	0x3c9e6106	0.019333374
58	0x3dda906b	0.10672077
59	0x3d13de48	0.036100656
60	0xbcfa86c7	-0.030581845
61	0x3de48038	0.11157268
62	0xbc9ca855	-0.019123236
63	0x3cee5db6	0.02909742
64	0x3dce6076	0.10076992
65	0xbd98b16a	-0.07455714
66	0x3c42b71b	0.011884476
67	0xbdf03263	-0.117283605
68	0x3d02e89f	0.031960126
69	0xbdea7de6	-0.114497945
70	0x3c44ec2b	0.012019197
71	0xbcc33048	-0.023826733
72	0x3d4fc560	0.05072534
73	0x3cc59b6e	0.024121966
74	0xbdbe0887	-0.0927897
75	0xbd443ab2	-0.04790754
76	0xbdb4ab9c	-0.088217944
77	0xbdcd45bd	-0.10023067
78	0xbde45305	-0.11148647
79	0x3d5d6998	0.05405578
80	0xbd6ce077	-0.057831254
81	0x3dd0cc5a	0.10195227
82	0xbd9f2a28	-0.077717125
83	0x3dd94f27	0.106108
84	0x3dc71cdf	0.097223036
85	0xbdf17f2b	-0.117918335
86	0xbdb5f96d	-0.08885465
87	0x3d815de9	0.0631674
88	0x3d57e6d3	0.052710366
89	0x3c14a5de	0.009072749
90	0xbcd7a3c9	-0.026323216
91	0x3dc806a1	0.09766889
92	0x3d7e460e	0.062078528
93	0xbdc3216c	-0.09527859
94	0x3dc28370	0.09497726
95	0xbc3d9fde	-0.01157376
96	0xbca1c00e	-0.0197449
97	0x3d76cb73	0.060252618
98	0x3d2d8ce6	0.0423707
99	0x3d9881b1	0.07446612
100	0xbd8bef53	-0.06832757
101	0xbd339ab0	-0.043848693
102	0xbcbd0706	-0.023074638
103	0x3dbf544c	0.0934225
104	0xbddb0778	-0.10694784
105	0xbd9754dc	-0.073892325
106	0xbdba338f	-0.09091865
107	0x3c8c150a	0.017099876
108	0x3db56b90	0.088584065
109	0xbd181be3	-0.03713597
110	0xbdf9d499	-0.12198753
111	0x3d97f209	0.074192114
112	0x3be4d246	0.0069830744
113	0xbd124436	-0.035709582
114	0xbcce676f	-0.025195805
115	0x3d83e519	0.06440181
116	0x3dd3e67b	0.10346695
117	0xbbc69491	-0.006060191
118	0x3daf0a89	0.08546931
119	0x3d3d5f7a	0.04623363
120	0x3d14a8a5	0.036293644
121	0xbc21b706	-0.009870296
122	0xbd516037	-0.05111715
123	0xbd8e6975	-0.06953708
124	0x3dac6933	0.08418503
125	0xbd8ebcf3	-0.06969633
126	0xbda3b838	-0.07994121
127	0x3d3d9c0c	0.046291396
128	0xbdb45c5c	-0.08806679
129	0xbd848e81	-0.06472493
130	0xbd990365	-0.074713506
131	0xbcb41221	-0.0219813
132	0xbce08c30	-0.027410597
133	0xbda100f7	-0.07861512
134	0xbde8832b	-0.11353143
135	0xbd779937	-0.06044885
136	0xbdd7d4e9	-0.10538656
137	0x3aa6a493	0.0012713842
138	0xbde22012	-0.11041273
139	0x3db3cfe5	0.08779887
140	0xbddeaa0d	-0.10872278
141	0xbbb61099	-0.005556178
142	0x3cc7565d	0.024333173
143	0x3cba4779	0.022739159
144	0x3d82d320	0.06387925
145	0x3dd9c902	0.10634042
146	0x3d80fde0	0.06298423
147	0x3d141f2d	0.036162544
148	0x3d894b18	0.06703776
149	0x3dd79659	0.105267234
150	0xbd1395b2	-0.036031432
151	0xbd093a24	-0.033502713
152	0xbc152f26	-0.009105479
153	0x3dc47f3a	0.09594579
154	0x3dc09aeb	0.09404548
155	0xbcb04897	-0.021518989
156	0x3b7ef845	0.0038905304
157	0x3df760dc	0.12079021
158	0x3dec7d61	0.11547352
159	0x3da933de	0.08261846
160	0x3d92419d	0.07141421
161	0xbd15f2b0	-0.036608398
162	0x3dcce7a3	0.10005119
163	0xbda02531	-0.07819594
164	0xbdb5f480	-0.08884525
165	0x3d81ca4e	0.06337415
166	0x3d627f68	0.055297285
167	0xbd5a5be3	-0.053310286
168	0x3d51a4db	0.05118261
169	0xbdbba160	-0.09161639
170	0xbc3f5049	-0.011676856
171	0x3d2863c9	0.041110788
172	0xbd03d10a	-0.032181777
173	0xbd6ba92f	-0.057534393
174	0xbcc5cfcd	-0.024146939
175	0xbda8b638	-0.082378805
176	0x3df11366	0.11771278
177	0xbc0636e4	-0.008191798
178	0x3d83209c	0.06402704
179	0xbd819b33	-0.0632843
180	0x3d18b840	0.03728509
181	0xbb64a4b5	-0.0034888212
182	0x3dc90ae6	0.09816532
183	0xbcbdf61b	-0.023188641
184	0xbd4bc396	-0.049747072
185	0x3d0da438	0.03458044
186	0x3da5c981	0.080950744
187	0xbdb9d591	-0.09073938
188	0xbd8cdf97	-0.06878584
189	0x3d72bf9f	0.059264775
190	0x3dd82409	0.10553748
191	0x3d2aa7f9	0.041664097
192	0x3d1ddb9c	0.038539514
193	0xbc011106	-0.007877594
194	0x3d39360a	0.04521755
195	0xbc88654a	-0.01664986
196	0x3ba96688	0.0051696934
197	0x3d753cb6	0.05987235
198	0x3d9c6531	0.07636488
199	0x3dc9d7c9	0.09855611
200	0xbdc678ce	-0.096910104
201	0x3de041b6	0.10950033
202	0x3ca367ca	0.019946951
203	0xbc9164cd	-0.01774826
204	0x3c965aa2	0.018353764
205	0xbc6f0494	-0.014588494
206	0xbdada043	-0.08477833
207	0xbd3dc6c3	-0.046332132
208	0x3d5d8084	0.05407764
209	0x3d873d94	0.06603542
210	0x3d0ef1f8	0.034898728
211	0xbcf00418	-0.029298827
212	0x3ded2e6e	0.115811214
213	0x3d6fafb3	0.05851717
214	0x3da7d443	0.081947826
215	0x3c39224d	0.011299682
216	0xbdda79cb	-0.106677614
217	0x3be12845	0.0068712556
218	0xbdd6ccde	-0.10488294
219	0xbd062b09	-0.032755885
220	0xbc3f1ed0	-0.011665061
221	0x3d29ed2e	0.041485958
222	0xbd287d4c	-0.041135117
223	0xbdd003b0	-0.10156953
224	0xbdd6cc72	-0.104882136
225	0x3c16da2f	0.009207292
226	0x3deaaf95	0.11459271
227	0xbbd8e321	-0.0066188728
228	0xbda960f8	-0.082704484
229	0x3ce8ee1e	0.028433856
230	0xbd65b2b3	-0.056078624
231	0xbcec325d	-0.028832609
232	0x3c22c4fe	0.009934662
233	0xbca91570	-0.020640105
234	0xbd716138	-0.058930606
235	0xbc52d5d5	-0.012868364
236	0xbdd6bc65	-0.10485152
237	0xbd036201	-0.032075886
238	0x3dd90833	0.10597267
239	0x3da73b68	0.08165628
240	0xbdb812cd	-0.08987961
241	0x3d9f357c	0.07773873
242	0x3b86f195	0.0041181543
243	0xbd0aa5df	-0.033849593
244	0xbd838c80	-0.064232826
245	0xbd39d5c9	-0.045369897
246	0xbd63f092	-0.055649348
247	0x3da2fe0f	0.07958614
248	0xbde3abb7	-0.111167364
249	0xbd930aa8	-0.07179767
250	0x3dcca45d	0.09992287
251	0xbd9c3266	-0.076268
252	0xbd86b378	-0.065772
253	0x3d7bd0a8	0.061478287
254	0xbd9d2f32	-0.076750174
255	0xbdb1e84e	-0.08686887

layer1.0.bias f4 [16]
0	0xbd77d0dd	-0.060501922
1	0x39562730	0.00020423229
2	0x3d74ce46	0.05976703
3	0x3de980e5	0.11401538
4	0x3b6d5cf2	0.003621873
5	0x3d0666db	0.032812934
6	0xbd42d049	-0.047561917
7	0xbdc50dcf	-0.096217744
8	0x3ddb5801	0.10710145
9	0x3cf47f3a	0.029845823
10	0xbd9d453a	-0.076792195
11	0xbda2108e	-0.07913314
12	0x3c8c2687	0.017108215
13	0x3de392f3	0.11112013
14	0x3afcf68f	0.0019299554
15	0xbda69d5b	-0.08135482

layer1.1.weight f4 [16]
0	0x3f7ff8bd	0.9998892
1	0x3f7e0831	0.9923125
2	0x3f7e8f65	0.9943755
3	0x3f801905	1.0007635
4	0x3f822756	1.0168254
5	0x3f7ea962	0.9947721
6	0x3f8024a3	1.0011181
7	0x3f7ed46c	0.9954288
8	0x3f7d694a	0.98988783
9	0x3f7e5dd2	0.9936191
10	0x3f7fe67e	0.9996108
11	0x3f7fe6ac	0.9996135
12	0x3f8049eb	1.0022558
13	0x3f802589	1.0011455
14	0x3f8117be	1.008537
15	0x3f7ceacc	0.9879577

layer1.1.bias f4 [16]
0	0x3a6b7ee0	0.00089834444
1	0xba7f5f8c	-0.00097417156
2	0xbc550df7	-0.013003818
3	0x3b91a80f	0.004445083
4	0x3c2b327d	0.010449049
5	0xba8c6671	-0.0010711682
6	0x3b6a9573	0.0035794645
7	0xbbbec760	-0.005822107
8	0xbc07d9b4	-0.008291651
9	0xbbd3dd4d	-0.00646559
10	0xbb04b043	-0.0020246662
11	0x3bb156c0	0.0054119527
12	0x3ba212a9	0.004946072
13	0xbaefd946	-0.0018299005
14	0x3c14d18e	0.009083165
15	0xbc309bf1	-0.010779367

layer1.1.running_mean f4 [16]
0	0xbcd09413	-0.025461232
1	0xbe2bf09e	-0.16791007
2	0x3e67a473	0.22621326
3	0xbdc83633	-0.09775963
4	0xbd05c144	-0.032655016
5	0xbe182b68	-0.14860308
6	0xbe41a71f	-0.18911408
7	0x3cbb91a5	0.022896597
8	0xbd3f2e0a	-0.046674766
9	0x3de6e48f	0.11274063
10	0xbd3383a2	-0.043826707
11	0xbeb065ec	-0.3445276
12	0xbe331000	-0.17486572
13	0x3dbc1dc7	0.09185367
14	0xbdf39276	-0.118931696
15	0xbe46abd6	-0.19401488

layer1.1.running_var f4 [16]
0	0x3d97145a	0.07376929
1	0x3dbf2a60	0.09334254
2	0x3dab6aa5	0.0836995
3	0x3db3dcb5	0.08782331
4	0x3d8b7b60	0.06810641
5	0x3d9e847f	0.077401154
6	0x3d974a83	0.07387259
7	0x3db64517	0.088998966
8	0x3d9bff51	0.07617057
9	0x3d9ab0d1	0.07553256
10	0x3d933dc6	0.07189517
11	0x3dbd8170	0.09253204
12	0x3da8800f	0.0822755
13	0x3d9917b3	0.074752234
14	0x3d988a75	0.074482836
15	0x3daa2793	0.083083294

layer2.0.weight f4 [32, 16, 5, 5]
0	0xbd038cc6	-0.032116674
1	0x3d5c38c7	0.053765085
2	0x3d350a9a	0.044199564
3	0x3b9bba46	0.00475243
4	0xbc93b25e	-0.018029388
5	0x3d122817	0.035682764
6	0x3c4ec08b	0.012619148
7	0xbd1d2789	-0.03836778
8	0xbc3f0a9c	-0.011660244
9	0xbd17e2e3	-0.03708161
10	0x3c314415	0.010819455
11	0x3cf623c7	0.030046357
12	0x3b35afae	0.0027723121
13	0x3d00475b	0.03131805
14	0xbcb82179	-0.022476899
15	0xbbb5fc01	-0.005553723
16	0x3b63e4d5	0.0034773846
17	0xbc884c4f	-0.01663795
18	0xbd0efbfe	-0.034908287
19	0x3c4866c3	0.012231532
20	0xbc4566d2	-0.01204844
21	0xbd240da5	-0.040052075
22	0xbc5d23cf	-0.013497307
23	0x3d0b257f	0.033971306
24	0xbb8dd08e	-0.00432784
25	0x3c14d053	0.0090828715
26	0xbbd1ad42	-0.006398828
27	0x3d4c236c	0.04983847
28	0x3c6d8f6d	0.014499527
29	0xbd0e2a15	-0.0347081
30	0xbd17127b	-0.03688286
31	0xbd06edc1	-0.032941584
32	0x3d43dac2	0.047816046
33	0xbbe13f41	-0.0068739955
34	0xbcab23aa	-0.02089103
35	0xbcc15c19	-0.023603486
36	0xbd0e5e02	-0.03475762
37	0x3d073778	0.033011883
38	0x3d28fd7e	0.041257374
39	0x3c8dbb51	0.017301233
40	0x3b6e8226	0.0036393492
41	0x3bb44d92	0.005502411
42	0xbce7e0b9	-0.028305398
43	0x3d0f99ed	0.035058904
44	0xbcccdfb5	-0.025009016
45	0x3c5a8666	0.013337707
46	0x3cf80bee	0.030279126
47	0xbc9468e1	-0.018116416
48	0x3d006a80	0.031351566
49	0x3c98f2ea	0.018670518
50	0x3cc1afb9	0.023643361
51	0xbd201d93	-0.039090704
52	0x3b774a30	0.0037733428
53	0xbd3e4495	-0.046452124
54	0xbd2bdb0a	-0.04195694
55	0x3d076d8b	0.033063453
56	0xbaac9288	-0.0013166228
57	0xbcbda438	-0.023149595
58	0xbd559bb7	-0.052150454
59	0xbd44f99f	-0.04808962
60	0xbb394df1	-0.0028275216
61	0xbcdf2ae2	-0.027242128
62	0x3bc9b57f	0.006155669
63	0xbd17d321	-0.037066583
64	0x3d217625	0.039419312
65	0xbbd1bbe5	-0.0064005726
66	0x3b759e3a	0.0037478344
67	0xbcc947df	-0.024570404
68	0xbd5249b2	-0.051339813
69	0xbd028a2a	-0.031870045
70	0x3d29a3e0	0.04141605
71	0xbca745e6	-0.020419072
72	0xbd517500	-0.05113697
73	0x3c0a1bfb	0.008429523
74	0x3c979ded	0.018507922
75	0x3d3d39d5	0.04619773
76	0xbd05a3e3	-0.032626998
77	0xbc51db78	-0.012808673
78	0xbd0b739f	-0.03404581
79	0x3d2d2d95	0.0422798
80	0xbca0cc23	-0.01962859
81	0xbc86aacc	-0.016438864
82	0xbc6d8600	-0.01449728
83	0x3d09fbe9	0.033687506
84	0x3ca26875	0.0198252
85	0x3ccb58ba	0.024822582
86	0x3cca71e9	0.02471252
87	0xbc3ba433	-0.011452722
88	0xbd05a148	-0.032624513
89	0x3cefbc62	0.029264633
90	0x3c0720f5	0.008247604
91	0x3d1f7008	0.0389252
92	0x3c46950f	0.012120499
93	0xbcca512f	-0.024696914
94	0x3ce2f6b0	0.02770552
95	0xbca43867	-0.020046426
96	0xbd0b1385	-0.033954162
97	0xbabf86da	-0.0014612332
98	0x3d66dd0e	0.056363158
99	0x3ce55feb	0.027999839
100	0x3cfecfa3	0.031104868
101	0xbd07b97c	-0.033135876
102	0x398dbc25	0.00027033794
103	0xbcbf5749	-0.02335705
104	0xbc43d600	-0.011952877
105	0x3cc6328f	0.02419403
106	0x3b9b8e80	0.004747212
107	0xbd17acb2	-0.03702993
108	0x3d6f1d60	0.058377624
109	0x3cff4038	0.031158552
110	0x3d0cf38f	0.034411963
111	0x3cd866c2	0.026416186
112	0xbd07f78d	-0.033195067
113	0x3d24eb9a	0.04026375
114	0x3b9e7ed0	0.0048368946
115	0x3d6e2794	0.058143213
116	0xbcc03eee	-0.023467507
117	0xbccc6bd5	-0.024953762
118	0xbccc92db	-0.02497237
119	0x3b9803d3	0.0046391278
120	0xbc2936c9	-0.010328003
121	0xbc0de6f2	-0.008661019
122	0xbd0add53	-0.033902477
123	0x3d5d221b	0.053987604
124	0xbcce2366	-0.025163364
125	0x3d079c74	0.03310819
126	0x3b3049cc	0.0026899455
127	0xbbeeb516	-0.0072847707
128	0x3d0d01af	0.034425434
129	0xbd0b9658	-0.034078926
130	0xbc82ab80	-0.015950918
131	0xbbf7880e	-0.007554061
132	0x3c70b2c0	0.014691055
133	0x3d013f3e	0.031554453
134	0x3d32e8e5	0.043679137
135	0x3c193c8d	0.009352815
136	0x3c57aaf4	0.013163317
137	0x3d11f55e	0.03563439
138	0x3c39cf41	0.011340917
139	0xbd092e1b	-0.033491235
140	0x3c974a12	0.018467937
141	0xbcf19dcc	-0.029494189
142	0xbc38381e	-0.011243848
143	0xbcdb922e	-0.026803102
144	0x3d54cf1d	0.05195533
145	0x3d47ddb0	0.048795402
146	0x3d477522	0.04869569
147	0x3ca10865	0.019657323
148	0x3cd31f19	0.025771664
149	0xbcbd1d3a	-0.023085225
150	0xbcc2fdda	-0.023802686
151	0x3d3d719e	0.046250932
152	0xbc7b99f6	-0.015356531
153	0x3d21e9c7	0.039529588
154	0x3cedae9a	0.02901392
155	0x3cb3021a	0.021851588
156	0x3d35ee51	0.04441673
157	0x3d219588	0.039449245
158	0xbc832324	-0.016007967
159	0xbc6f35e2	-0.014600249
160	0x3d16209b	0.03665219
161	0x3cd3871f	0.025821267
162	0x3ca31ccc	0.019911192
163	0x3d3a5088	0.045486957
164	0xbc27f22b	-0.010250608
165	0x3d455ad5	0.048182327
166	0x3d540642	0.05176378
167	0x3cd78efe	0.026313301
168	0xbb04f317	-0.0020286494
169	0xbccda50d	-0.025103116
170	0xbd372a5f	-0.044718143
171	0xbaa98e28	-0.0012936043
172	0x3d1ce5dc	0.03830515
173	0xbd2bf5cd	-0.04198246
174	0x3c988eef	0.018622844
175	0xbc114d58	-0.008868538
176	0xbd05cf8b	-0.03266863
177	0x3d01430e	0.03155809
178	0x3cf45fec	0.029830895
179	0x3c686d36	0.014186194
180	0x3c528395	0.012848754
181	0xbb957bee	-0.0045618927
182	0xbbc64af0	-0.0060514137
183	0xbd453a5d	-0.048151363
184	0x3a7b447a	0.0009585094
185	0xbcea4308	-0.028596416
186	0x3c17491d	0.00923374
187	0xbd45c881	-0.04828692
188	0xbc1512b6	-0.009098699
189	0x3d2bf7dd	0.041984428
190	0xbd3cfe1b	-0.04614077
191	0xbc87413c	-0.016510598
192	0xbd4a9ce2	-0.04946602
193	0xbc4f5bb9	-0.012656146
194	0xbc99f4a9	-0.01879342
195	0x3c8227b1	0.015888067
196	0x3cf66dd5	0.030081669
197	0x3ceb3b2a	0.028714735
198	0x3cd7cd45	0.026342997
199	0x3d03092a	0.03199116
200	0xbc8e8489	-0.017397182
201	0x3b785ec5	0.0037898284
202	0x3bb73519	0.0055910465
203	0xbcd4dd48	-0.025984421
204	0xbcdc304e	-0.026878502
205	0xbd2b4a7a	-0.041819073
206	0xbd441589	-0.0478721
207	0xbcbd9762	-0.023143474
208	0xbb238ab0	-0.002495449
209	0xbc6063c5	-0.013695662
210	0xbd0acfdb	-0.033889633
211	0x3c3960a0	0.011314541
212	0x3b2df2c4	0.0026542405
213	0x3cf5f034	0.030021764
214	0x3d30eef0	0.04319662
215	0xbd41fa82	-0.047358043
216	0x3d2f8d1e	0.04285919
217	0xbd081fd4	-0.03323348
218	0xbc4597f5	-0.012060155
219	0x3cd3a3c0	0.025834918
220	0x3d2ff53d	0.042958487
221	0x3a13e1fa	0.0005641278
222	0xbcda40c4	-0.02664221
223	0x3d189612	0.037252493
224	0x3cf1c09a	0.029510785
225	0xbd3db373	-0.046313714
226	0xbba2e82c	-0.0049715247
227	0xbc7afa21	-0.015318424
228	0xbd3afd3b	-0.045651656
229	0x3c22e7f0	0.0099429935
230	0xbd34fde1	-0.04418743
231	0xbd443afe	-0.04790782
232	0x3cda6c6a	0.026663024
233	0x3d1e7762	0.03868807
234	0xbcae8dd7	-0.021307869
235	0xbc2cba9d	-0.010542539
236	0xbb383866	-0.0028109788
237	0xbd1deb99	-0.03855476
238	0x3c6b6efe	0.014369724
239	0xb871a59d	-5.7613117e-05
240	0xbbd059cb	-0.0063583604
241	0xbbae6d0a	-0.005323057
242	0x3c7ed75d	0.015554276
243	0xbba88e23	-0.005143897
244	0x3bb82076	0.005619104
245	0xbbf441d1	-0.007454135
246	0x3a77975d	0.0009444857
247	0xbcf50013	-0.029907262
248	0xbd1c48aa	-0.038155235
249	0x3d14cebb	0.036329966
250	0x3c908905	0.017643461
251	0xbc963f61	-0.018340768
252	0xbca474a2	-0.020075146
253	0xbc8d7fff	-0.017272947
254	0x3c8bb446	0.017053735
255	0x3bd9ce99	0.006646943

layer2.0.bias f4 [32]
0	0xbd413775	-0.04717203
1	0xbcac7841	-0.021053435
2	0xbcb1a745	-0.021686206
3	0xbd1b09e3	-0.037851226
4	0xbcb9c216	-0.022675555
5	0xbc624d50	-0.013812378
6	0xbc3395bb	-0.0109609915
7	0xbcac4db0	-0.021033138
8	0xbcd2d99a	-0.025738526
9	0x3d1695ba	0.036763884
10	0x3c0fb73a	0.008771712
11	0xbd058956	-0.032601677
12	0x3c94e112	0.018173728
13	0xbc8d5c99	-0.017256068
14	0x3aa93ddc	0.0012912112
15	0xbd228412	-0.039676733
16	0x3c588317	0.013214848
17	0xbd1bbfbc	-0.03802465
18	0xbc0523b7	-0.008126191
19	0xbc5f0a9b	-0.013613368
20	0xbd199f3c	-0.037505373
21	0x3d0b3680	0.033987522
22	0xbb9f3840	-0.0048590004
23	0xbc2f9aaa	-0.010718027
24	0xbd3012f9	-0.042986844
25	0x3cb93add	0.022611076
26	0x3cdfe191	0.027329238
27	0xbc9ce99b	-0.01915436
28	0x3cebb151	0.028771074
29	0x3d412a90	0.04715973
30	0xbc2b4cdb	-0.0104553355
31	0xbd1ed835	-0.03878041

layer2.1.weight f4 [32]
0	0x3f8007aa	1.0002339
1	0x3f7e994f	0.9945268
2	0x3f80325d	1.001537
3	0x3f800674	1.0001969
4	0x3f7f407e	0.9970778
5	0x3f7d654c	0.9898269
6	0x3f80845b	1.0040392
7	0x3f800835	1.0002505
8	0x3f7f552f	0.99739355
9	0x3f804466	1.0020874
10	0x3f808e34	1.0043397
11	0x3f7f1357	0.99638885
12	0x3f7fcd75	0.9992288
13	0x3f7e587a	0.99353755
14	0x3f808492	1.0040457
15	0x3f7ff0c4	0.99976754
16	0x3f7f176a	0.996451
17	0x3f806bd4	1.0032907
18	0x3f7ecb0b	0.9952857
19	0x3f80210a	1.0010083
20	0x3f7fc299	0.9990631
21	0x3f7f42ca	0.9971129
22	0x3f7ef280	0.99588776
23	0x3f808ba7	1.0042619
24	0x3f7fc4be	0.9990958
25	0x3f805e19	1.0028716
26	0x3f7dbe8a	0.99118865
27	0x3f7d243d	0.9888342
28	0x3f7f1369	0.9963899
29	0x3f8036ec	1.0016761
30	0x3f804bec	1.002317
31	0x3f7faea9	0.99875885

layer2.1.bias f4 [32]
0	0xb8ea2fc0	-0.000111668836
1	0xbb077c32	-0.0020673391
2	0xbad6fc18	-0.0016402034
3	0xba83fcfe	-0.0010069904
4	0x39669348	0.00021989376
5	0xbc2e8b57	-0.010653338
6	0x3b41f8d0	0.0029597767
7	0x3afa2273	0.0019083753
8	0xbab59311	-0.0013853033
9	0x3b34249f	0.0027487648
10	0x3b02982e	0.0019927132
11	0xbbc7af3e	-0.0060938885
12	0xbaee7f3a	-0.0018195875
13	0xbbd2d1ae	-0.006433687
14	0x3b421e5e	0.002962015
15	0xbb1f2240	-0.002428189
16	0xba297046	-0.00064635684
17	0x3b24ccf0	0.0025146566
18	0xbb698762	-0.0035633673
19	0x39c55fcf	0.0003764615
20	0xbb57f3d5	-0.0032951732
21	0xbb17bd9d	-0.002315379
22	0xbc2ce7a1	-0.0105532715
23	0x3b145228	0.0022631977
24	0xbac58ea9	-0.0015072423
25	0xbaec0542	-0.0018006938
26	0xbbc4e954	-0.00600926
27	0xbc24cf05	-0.010059123
28	0xbaa4feb7	-0.0012588118
29	0x38f3faa2	0.00011633827
30	0x3a9032b8	0.0011001443
31	0x39f4d488	0.00046697655

layer2.1.running_mean f4 [32]
0	0x3ec2ec97	0.3807113
1	0x3f50e9be	0.8160666
2	0x3f01b794	0.50670743
3	0x3ef25f58	0.47338367
4	0xbf5a3f75	-0.8525308
5	0x3e67462a	0.22585359
6	0x3ee03986	0.43793887
7	0x3f971c4e	1.1805513
8	0x3f12bc74	0.57318807
9	0xbfa1adf3	-1.263121
10	0xbfe06152	-1.75297
11	0x3f8aa103	1.0830387
12	0x3f40a91d	0.75258046
13	0xbf28d5c6	-0.6595119
14	0x3f220a4f	0.6329698
15	0xbdc2c344	-0.095099
16	0x3f83fde7	1.031186
17	0xbf4d43c5	-0.80181533
18	0x3e9cc9d1	0.30622724
19	0xbe94bf9b	-0.29052433
20	0x3f13b05c	0.5769098
21	0xbf32bc74	-0.69818807
22	0x3e202b07	0.15641414
23	0xbfa0016a	-1.2500432
24	0xbddf44e7	-0.10901814
25	0x3f095ea0	0.5366001
26	0xbf3c7c11	-0.7362681
27	0xbf8ac876	-1.0842426
28	0x3efa0f06	0.48839587
29	0x3ec35fcd	0.38159028
30	0x3f3cc397	0.73735946
31	0x3ea5e6fe	0.32402796

layer2.1.running_var f4 [32]
0	0x3f22df2c	0.63621783
1	0x3eb81e1f	0.3596048
2	0x3ebc903d	0.36828795
3	0x3eaf6e84	0.34264004
4	0x3f228a5b	0.63492364
5	0x3e70c85a	0.23513928
6	0x3ea0ad83	0.3138238
7	0x3ee3c27f	0.44484326
8	0x3e757a7a	0.23972502
9	0x3f46b4e7	0.77619785
10	0x3f5ac70f	0.8545999
11	0x3eec6c0c	0.46176183
12	0x3e861d9a	0.2619446
13	0x3ed9d0b3	0.42542037
14	0x3eaf2f11	0.34215596
15	0x3f2cbaf8	0.6747279
16	0x3efe1904	0.4962846
17	0x3ee54a37	0.44783184
18	0x3e7e2c50	0.24821591
19	0x3f254dc9	0.64571816
20	0x3ea612ca	0.3243621
21	0x3f351dc3	0.7074854
22	0x3e797550	0.24361157
23	0x3f0b27a5	0.5435737
24	0x3f0f7509	0.56037956
25	0x3e6c6983	0.23087125
26	0x3efbcdc0	0.49180412
27	0x3f02b13d	0.51051694
28	0x3f0554dc	0.5208261
29	0x3f070005	0.52734405
30	0x3eba82dc	0.36427963
31	0x3e3ea188	0.18616307

fc.weight f4 [5, 43808]
0	0xba568458	-0.0008183173
1	0x3a1917bb	0.0005840023
2	0x3aa7a48d	0.0012790129
3	0x3b892e49	0.004186426
4	0xbad09041	-0.0015912132
5	0x3bbfc857	0.00585274
6	0x3be3ff13	0.0069578975
7	0xbb09367b	-0.0020937014
8	0x3b876df9	0.004132983
9	0x3b833e17	0.0040052044
10	0x3bc5ac2a	0.0060324864
11	0x3bc942a1	0.006141976
12	0x3b999eb8	0.00468811
13	0x3b6bc8b4	0.0035977783
14	0x3b9f7a65	0.0048668855
15	0x3bb52334	0.005527878
16	0x3b78a700	0.0037941337
17	0xba2082d0	-0.0006123008
18	0x3beba4fd	0.007191299
19	0x3b8437fc	0.004034994
20	0x3b8ed186	0.0043584732
21	0x38c00bc8	9.157468e-05
22	0x3ba17a46	0.004927906
23	0x3b312b45	0.0027033847
24	0xbb20925f	-0.0024501306
25	0xba83f543	-0.00100676
26	0xba3ee7f8	-0.0007282491
27	0x3b305d6a	0.0026911148
28	0x3bce7171	0.0063001444
29	0x3b88de9b	0.0041769273
30	0xbacb3766	-0.0015504181
31	0x3b7c65f0	0.0038512908
32	0x3bb7105f	0.0055866684
33	0x3ae716d9	0.001763071
34	0x3adc8a73	0.0016825929
35	0x3ac344b6	0.0014897797
36	0x3ad105fd	0.0015947219
37	0x3b961c88	0.004581038
38	0x3c24b5a1	0.010053069
39	0x3b82855c	0.003983183
40	0x3acc2084	0.0015573655
41	0x3b41194c	0.002946454
42	0x3b163860	0.0022921786
43	0x3925a440	0.00015796814
44	0x3bf2f32c	0.0074142423
45	0xba573250	-0.0008209096
46	0x3ba6c03f	0.0050888355
47	0x3b3da4cd	0.002893734
48	0x3b0fcd4a	0.002194243
49	0xba4c0060	-0.00077820383
50	0x3c16afcd	0.009197188
51	0x3af93bee	0.0019015053
52	0x3af534cd	0.0018707752
53	0x3bca0df9	0.0061662165
54	0x3a99f30e	0.001174541
55	0x3bf49f56	0.0074652834
56	0x3b1d9c8f	0.0024049615
57	0x3aca29f5	0.0015423881
58	0x3aa0f629	0.0012280393
59	0x3b8c5a6a	0.004283239
60	0x3b7f1b5c	0.003892622
61	0x3c04b92b	0.008100788
62	0x3be5d8a6	0.007014352
63	0x3b195cda	0.002340129
64	0x3b0aef89	0.0021199903
65	0x3bf08afb	0.0073407865
66	0x3b936c87	0.0044990215
67	0x3b246d17	0.0025089437
68	0x3b26088b	0.0025334682
69	0x3baa34b4	0.005194271
70	0x3c28490e	0.010271324
71	0x3b3883fd	0.0028154843
72	0x3b9991a2	0.0046865502
73	0x3bf7de2b	0.0075643263
74	0x3c08cec0	0.008350074
75	0x3ae0ec76	0.0017160315
76	0x3bd44fb8	0.00647923
77	0x3bf67858	0.0075216703
78	0x3baa5c51	0.0051989933
79	0x39333c8e	0.00017093329
80	0xb926277f	-0.00015845707
81	0x3b7f8e47	0.0038994716
82	0x3bcb72a0	0.0062087327
83	0x3b4ba00b	0.0031070735
84	0xbb5912d4	-0.0033122795
85	0x3bb05c60	0.0053821057
86	0x3bdeee0a	0.006803279
87	0x3b2ad04c	0.0026064096
88	0x3c03743b	0.008023317
89	0x3b6fa0b9	0.0036564304
90	0x3bf3fb6a	0.0074457424
91	0x3c03a42b	0.008034746
92	0x3b0ff92d	0.0021968589
93	0x3b26ae92	0.0025433642
94	0x3bd832c0	0.0065978467
95	0x3baa8c94	0.0052047465
96	0x3ba8fba7	0.0051569524
97	0x3a2f4eb7	0.00066874496
98	0x3aa761cd	0.0012770236
99	0x3a6b55db	0.0008977332
100	0x3bb10f39	0.005403426
101	0x3b918d40	0.004441887
102	0x3b4b6507	0.0031035559
103	0x3ba84a44	0.0051358063
104	0x3b88d178	0.0041753612
105	0x3bdc0af0	0.006715171
106	0x3c09ccc4	0.008410636
107	0x3c2ac3c9	0.010422655
108	0x3c096627	0.008386171
109	0x3c20813a	0.009796435
110	0x3b9d289a	0.0047961
111	0x3b9bc2fc	0.0047534686
112	0x3bee1b35	0.007266427
113	0x3b5f637f	0.0034086404
114	0x3b890f39	0.004182723
115	0x3b9d0fd1	0.004793145
116	0x3b5e0368	0.0033876542
117	0xbb03d22f	-0.0020114293
118	0x3b06418e	0.002048585
119	0x3bad69e9	0.0052921665
120	0xba732af6	-0.0009276116
121	0xb9c9b36a	-0.0003847138
122	0x3bf59193	0.0074941604
123	0x3bae37e9	0.0053167236
124	0x3bbfc29d	0.005852057
125	0x3c07ae42	0.008281292
126	0x3bf36db1	0.0074288477
127	0x3a81e448	0.0009909952
128	0x3bc28caa	0.0059371786
129	0xb993048f	-0.0002804142
130	0x3c05bcdf	0.008162706
131	0x3b700ba1	0.0036628025
132	0x3c01eec6	0.007930463
133	0x3b4e47dc	0.0031475937
134	0x3aa49c9f	0.0012558884
135	0xb9ac66de	-0.00032883039
136	0x3ba56531	0.0050474633
137	0x3b899be3	0.0041994913
138	0x3bb2bf13	0.0054549067
139	0x3b47deee	0.0030497867
140	0x3bfdaee3	0.0077417954
141	0x3c2bb56a	0.010480264
142	0x3c2ab835	0.010419895
143	0x3b674d09	0.003529372
144	0x3bf221ef	0.007389299
145	0x3ba784ad	0.0051122517
146	0x3ba01bd4	0.00488613
147	0x3b23d65b	0.0024999592
148	0x39a5103d	0.0003148335
149	0x3be5b402	0.007009984
150	0x3c026974	0.007959712
151	0x3bb13134	0.005407477
152	0x3bb7ab17	0.0056051123
153	0x3bf7aec5	0.007558676
154	0x3c058078	0.008148305
155	0x3baa5e50	0.005199231
156	0x3ac64325	0.0015126212
157	0x3a1cc5c1	0.00059803954
158	0x3b96924a	0.0045950757
159	0x3ba3b3e8	0.0049958117
160	0x3b6ec60e	0.0036433968
161	0x3bb68b27	0.0055707875
162	0x3c0bed39	0.008540445
163	0x3c01f1df	0.007931202
164	0x3bccfb2e	0.006255529
165	0x3c03f29e	0.00805345
166	0x3beaa930	0.007161282
167	0x3be6a30e	0.0070384806
168	0x3acbdd99	0.0015553712
169	0x3ade19f3	0.0016944989
170	0x3b3c43e9	0.0028727
171	0x3ad7c27f	0.0016461163
172	0x3bb88ef3	0.0056322752
173	0x3bb69fe5	0.00557326
174	0x3b56c8ae	0.0032773423
175	0x3bc49b0a	0.0059999274
176	0x3be8d6c5	0.0071056806
177	0x3aecaa2e	0.0018056089
178	0x3af024d6	0.0018321525
179	0x3c18c24e	0.00932367
180	0x3bb7fb51	0.005614676
181	0x3bd5714b	0.0065137497
182	0x3bf312ef	0.0074180285
183	0x3c1b23ae	0.009468956
184	0x3c3b5d98	0.011435889
185	0x3aca88ec	0.0015452183
186	0x3bf5ea69	0.0075047505
187	0x3bd18db8	0.006395068
188	0x3bd36a74	0.006451899
189	0x39c5cc6c	0.00037727074
190	0x3b1aefed	0.0023641542
191	0x3a930dfe	0.001121938
192	0x3ba9985f	0.0051756348
193	0xbafd641d	-0.0019332204
194	0xba8169fe	-0.0009873507
195	0x3c0d7206	0.008633142
196	0x3c1835ee	0.009290202
197	0x3bff78f4	0.007796401
198	0x3c224d18	0.009906076
199	0x3bb32311	0.0054668267
200	0x3b5ee1ca	0.0034009092
201	0x3bc51643	0.0060146167
202	0x3ba77c77	0.005111273
203	0xba518924	-0.0007993153
204	0x3bda4ab2	0.0066617364
205	0x3b31a636	0.0027107126
206	0x3ad68b47	0.0016368412
207	0x3bf795a8	0.007555682
208	0x3bdfaaec	0.0068257954
209	0x3a0e0543	0.0005417654
210	0x3bb77d3e	0.005599647
211	0x3b3b38b2	0.0028567729
212	0x3b1db379	0.0024063273
213	0x3a41a0ab	0.0007386307
214	0x3a94659e	0.0011321788
215	0x3ac663d2	0.001513595
216	0x3b4f36bb	0.0031618315
217	0x3c0a6ddc	0.008449044
218	0x3bf03ea4	0.007331686
219	0x3c40ea97	0.011774681
220	0x3bd250aa	0.0064183073
221	0x3bd5e94d	0.0065280558
222	0x3b46dccf	0.0030344015
223	0x3ba47dc9	0.0050198776
224	0x3c1ba741	0.009500326
225	0x3b8629f8	0.0040943585
226	0x3c096244	0.008385245
227	0x3bdf4296	0.0068133576
228	0x3b9cc995	0.0047847726
229	0x3b682c60	0.003542684
230	0x3bc220af	0.0059243063
231	0x3b29c190	0.0025902726
232	0x3a85777d	0.0010182705
233	0x3b9eaee5	0.0048426264
234	0x3bd8ae5b	0.0066125817
235	0x3c008728	0.007844724
236	0x3c19538b	0.009358297
237	0x3ae93a03	0.0017793778
238	0x3c130bae	0.008974953
239	0x3a20c554	0.000613292
240	0x3bfab69f	0.0076511647
241	0x3c056d27	0.0081437
242	0x3af9f993	0.0019071571
243	0x3bc6d436	0.006067778
244	0x3ba9da9f	0.0051835324
245	0x3c0c23d5	0.008553465
246	0x3ae545e9	0.0017492148
247	0x3c14148b	0.009038101
248	0x3c0e3da9	0.008681693
249	0x3b2f2d3e	0.0026729847
250	0x3adc0776	0.0016786892
251	0x3c144c4f	0.0090513965
252	0x3bce282d	0.0062914104
253	0x3c296968	0.010340072
254	0x3b3143a6	0.0027048378
255	0x3c1e412f	0.009659096

fc.bias f4 [5]
0	0x3a1e0f8e	0.00060295395
1	0xbb3686bd	-0.0027851306
2	0x3c0cfb15	0.0086047845
3	0xbb81546b	-0.003946831
4	0xbc0ea92e	-0.008707328
